…
font-style: inherit;">=</span>[<span class="dv" style="color: #AD0000;
background-color: null;
font-style: inherit;">128</span>, <span class="dv" style="color: #AD0000;
background-color: null;
font-style: inherit;">100</span>])</span></code></pre></div></div>
<div class="cell-output cell-output-display" data-execution_count="6">
<pre><code>==========================================================================================
Layer (type:depth-idx)                   Output Shape              Param #
==========================================================================================
Generator                                [128, 1, 28, 28]          --
├─Sequential: 1-1                        [128, 784]                --
│    └─Linear: 2-1                       [128, 256]                25,856
│    └─LeakyReLU: 2-2                    [128, 256]                --
│    └─Linear: 2-3                       [128, 512]                131,584
│    └─LeakyReLU: 2-4                    [128, 512]                --
│    └─Linear: 2-5                       [128, 1024]               525,312
│    └─LeakyReLU: 2-6                    [128, 1024]               --
│    └─Linear: 2-7                       [128, 784]                803,600
│    └─Tanh: 2-8                         [128, 784]                --
==========================================================================================
Total params: 1,486,352
Trainable params: 1,486,352
Non-trainable params: 0
Total mult-adds (Units.MEGABYTES): 190.25
==========================================================================================
Input size (MB): 0.05
Forward/backward pass size (MB): 2.64
Params size (MB): 5.95
Estimated Total Size (MB): 8.63
…
font-style: inherit;">1</span>, <span class="dv" style="color: #AD0000;
background-color: null;
font-style: inherit;">28</span>, <span class="dv" style="color: #AD0000;
background-color: null;
font-style: inherit;">28</span>])</span></code></pre></div></div>
<div class="cell-output cell-output-display" data-execution_count="7">
<pre><code>==========================================================================================
Layer (type:depth-idx)                   Output Shape              Param #
==========================================================================================
Discriminator                            [128, 1]                  --
├─Sequential: 1-1                        [128, 1]                  --
│    └─Linear: 2-1                       [128, 512]                401,920
│    └─LeakyReLU: 2-2                    [128, 512]                --
│    └─Dropout: 2-3                      [128, 512]                --
│    └─Linear: 2-4                       [128, 256]                131,328
│    └─LeakyReLU: 2-5                    [128, 256]                --
│    └─Dropout: 2-6                      [128, 256]                --
│    └─Linear: 2-7                       [128, 128]                32,896
│    └─LeakyReLU: 2-8                    [128, 128]                --
│    └─Dropout: 2-9                      [128, 128]                --
│    └─Linear: 2-10                      [128, 1]                  129
│    └─Sigmoid: 2-11                     [128, 1]                  --
==========================================================================================
Total params: 566,273
Trainable params: 566,273
Non-trainable params: 0
Total mult-adds (Units.MEGABYTES): 72.48
==========================================================================================
Input size (MB): 0.40
Forward/backward pass size (MB): 0.92
Params size (MB): 2.27
Estimated Total Size (MB): 3.59
…
font-style: inherit;">=</span>(<span class="dv" style="color: #AD0000;
background-color: null;
font-style: inherit;">128</span>, <span class="dv" style="color: #AD0000;
background-color: null;
font-style: inherit;">100</span>))</span></code></pre></div></div>
<div class="cell-output cell-output-display" data-execution_count="24">
<pre><code>==========================================================================================
Layer (type:depth-idx)                   Output Shape              Param #
==========================================================================================
Generator                                [128, 1, 28, 28]          --
├─Sequential: 1-1                        [128, 1, 28, 28]          --
│    └─ConvTranspose2d: 2-1              [128, 128, 4, 4]          204,800
│    └─BatchNorm2d: 2-2                  [128, 128, 4, 4]          256
│    └─ReLU: 2-3                         [128, 128, 4, 4]          --
│    └─ConvTranspose2d: 2-4              [128, 64, 7, 7]           73,728
│    └─BatchNorm2d: 2-5                  [128, 64, 7, 7]           128
│    └─ReLU: 2-6                         [128, 64, 7, 7]           --
│    └─ConvTranspose2d: 2-7              [128, 32, 14, 14]         32,768
│    └─BatchNorm2d: 2-8                  [128, 32, 14, 14]         64
│    └─ReLU: 2-9                         [128, 32, 14, 14]         --
│    └─ConvTranspose2d: 2-10             [128, 1, 28, 28]          512
│    └─Tanh: 2-11                        [128, 1, 28, 28]          --
==========================================================================================
Total params: 312,256
Trainable params: 312,256
Non-trainable params: 0
Total mult-adds (Units.GIGABYTES): 1.76
==========================================================================================
Input size (MB): 0.05
Forward/backward pass size (MB): 24.26
Params size (MB): 1.25
Estimated Total Size (MB): 25.57
…
font-style: inherit;">1</span>, <span class="dv" style="color: #AD0000;
background-color: null;
font-style: inherit;">28</span>, <span class="dv" style="color: #AD0000;
background-color: null;
font-style: inherit;">28</span>))</span></code></pre></div></div>
<div class="cell-output cell-output-display" data-execution_count="25">
<pre><code>==========================================================================================
Layer (type:depth-idx)                   Output Shape              Param #
==========================================================================================
Discriminator                            [128, 1]                  --
├─Sequential: 1-1                        [128, 1, 1, 1]            --
│    └─Conv2d: 2-1                       [128, 32, 14, 14]         512
│    └─BatchNorm2d: 2-2                  [128, 32, 14, 14]         64
│    └─LeakyReLU: 2-3                    [128, 32, 14, 14]         --
│    └─Conv2d: 2-4                       [128, 64, 7, 7]           32,768
│    └─BatchNorm2d: 2-5                  [128, 64, 7, 7]           128
│    └─LeakyReLU: 2-6                    [128, 64, 7, 7]           --
│    └─Conv2d: 2-7                       [128, 128, 4, 4]          73,728
│    └─BatchNorm2d: 2-8                  [128, 128, 4, 4]          256
│    └─LeakyReLU: 2-9                    [128, 128, 4, 4]          --
│    └─Conv2d: 2-10                      [128, 1, 1, 1]            2,048
│    └─Sigmoid: 2-11                     [128, 1, 1, 1]            --
==========================================================================================
Total params: 109,504
Trainable params: 109,504
Non-trainable params: 0
Total mult-adds (Units.MEGABYTES): 369.68
==========================================================================================
Input size (MB): 0.40
Forward/backward pass size (MB): 23.46
Params size (MB): 0.44
Estimated Total Size (MB): 24.30
…
