…
inear(ngf*4, int(np.prod(self.out_dim))),\n            nn.Tanh(),\n        )\n\n    def forward(self, x: Tensor) -&gt; Tensor:\n        x = self.model(x)\n        x = torch.reshape(x, (x.size(0), *self.out_dim))\n        return x\n\nsummary(Generator(out_dim=(1, 28, 28)), input_size=[128, 100])\n\n==========================================================================================\nLayer (type:depth-idx)                   Output Shape              Param #\n==========================================================================================\nGenerator                                [128, 1, 28, 28]          --\n├─Sequential: 1-1                        [128, 784]                --\n│    └─Linear: 2-1                       [128, 256]                25,856\n│    └─LeakyReLU: 2-2                    [128, 256]                --\n│    └─Linear: 2-3                       [128, 512]                131,584\n│    └─LeakyReLU: 2-4                    [128, 512]                --\n│    └─Linear: 2-5                       [128, 1024]               525,312\n│    └─LeakyReLU: 2-6                    [128, 1024]               --\n│    └─Linear: 2-7                       [128, 784]                803,600\n│    └─Tanh: 2-8                         [128, 784]                --\n==========================================================================================\nTotal params: 1,486,352\nTrainable params: 1,486,352\nNon-trainable params: 0\nTotal mult-adds (M): 190.25\n==========================================================================================\nInput size (MB): 0.05\nForward/backward pass size (MB): 2.64\nParams size (MB): 5.95\nEstimated Total Size
…
  nn.Dropout(0.3),\n\n            nn.Linear(ndf, 1),\n            nn.Sigmoid(),\n        )\n\n    def forward(self, x: Tensor) -&gt; Tensor:\n        x = torch.reshape(x, (x.size(0), -1))\n        return self.model(x)\n\nsummary(Discriminator(input_dim=(1, 28, 28)), input_size=[128, 1, 28, 28])\n\n==========================================================================================\nLayer (type:depth-idx)                   Output Shape              Param #\n==========================================================================================\nDiscriminator                            [128, 1]                  --\n├─Sequential: 1-1                        [128, 1]                  --\n│    └─Linear: 2-1                       [128, 512]                401,920\n│    └─LeakyReLU: 2-2                    [128, 512]                --\n│    └─Dropout: 2-3                      [128, 512]                --\n│    └─Linear: 2-4                       [128, 256]                131,328\n│    └─LeakyReLU: 2-5                    [128, 256]                --\n│    └─Dropout: 2-6                      [128, 256]                --\n│    └─Linear: 2-7                       [128, 128]                32,896\n│    └─LeakyReLU: 2-8                    [128, 128]                --\n│    └─Dropout: 2-9                      [128, 128]                --\n│    └─Linear: 2-10                      [128, 1]                  129\n│    └─Sigmoid: 2-11                     [128, 1]                  --\n==========================================================================================\nTotal params: 566,273\nTrainable params: 566,273\nNon-trainable params: 0\nTotal mult-adds (M): 72.48\n==========================================================================================\nInput size (MB): 0.40\nForward/backward pass size (MB): 0.92\nParams size (MB): 2.27\nEstimated Total Size (MB): 3.59\n=========================================================================================="
…
inplace=True),\n\n            nn.ConvTranspose2d(ngf, nc, 4, 2, 1, bias=False),\n            nn.Tanh(),\n        )\n\n    def forward(self, x: Tensor) -&gt; Tensor:\n        x = torch.reshape(x, (x.size(0), -1, 1, 1))\n        return self.layers(x)\n\nsummary(Generator(), input_size=(128, 100))\n\n==========================================================================================\nLayer (type:depth-idx)                   Output Shape              Param #\n==========================================================================================\nGenerator                                [128, 1, 28, 28]          --\n├─Sequential: 1-1                        [128, 1, 28, 28]          --\n│    └─ConvTranspose2d: 2-1              [128, 128, 4, 4]          204,800\n│    └─BatchNorm2d: 2-2                  [128, 128, 4, 4]          256\n│    └─ReLU: 2-3                         [128, 128, 4, 4]          --\n│    └─ConvTranspose2d: 2-4              [128, 64, 7, 7]           73,728\n│    └─BatchNorm2d: 2-5                  [128, 64, 7, 7]           128\n│    └─ReLU: 2-6                         [128, 64, 7, 7]           --\n│    └─ConvTranspose2d: 2-7              [128, 32, 14, 14]         32,768\n│    └─BatchNorm2d: 2-8                  [128, 32, 14, 14]         64\n│    └─ReLU: 2-9                         [128, 32, 14, 14]         --\n│    └─ConvTranspose2d: 2-10             [128, 1, 28, 28]          512\n│    └─Tanh: 2-11                        [128, 1, 28, 28]          --\n==========================================================================================\nTotal params: 312,256\nTrainable params: 312,256\nNon-trainable params: 0\nTotal mult-adds (G): 1.76\n==========================================================================================\nInput size (MB): 0.05\nForward/backward pass size (MB): 24.26\nParams size (MB): 1.25\nEstimated Total Size (MB)
…
   nn.Conv2d(ndf*4, 1, 4, 1, 0, bias=False),\n            nn.Sigmoid(),\n        )\n\n    def forward(self, x: Tensor) -&gt; Tensor:\n        x = self.layers(x)\n        x = torch.reshape(x, (x.size(0), -1))\n        return x\n    \n\nsummary(Discriminator(), input_size=(BATCH_SIZE, 1, 28, 28))\n\n==========================================================================================\nLayer (type:depth-idx)                   Output Shape              Param #\n==========================================================================================\nDiscriminator                            [128, 1]                  --\n├─Sequential: 1-1                        [128, 1, 1, 1]            --\n│    └─Conv2d: 2-1                       [128, 32, 14, 14]         512\n│    └─BatchNorm2d: 2-2                  [128, 32, 14, 14]         64\n│    └─LeakyReLU: 2-3                    [128, 32, 14, 14]         --\n│    └─Conv2d: 2-4                       [128, 64, 7, 7]           32,768\n│    └─BatchNorm2d: 2-5                  [128, 64, 7, 7]           128\n│    └─LeakyReLU: 2-6                    [128, 64, 7, 7]           --\n│    └─Conv2d: 2-7                       [128, 128, 4, 4]          73,728\n│    └─BatchNorm2d: 2-8                  [128, 128, 4, 4]          256\n│    └─LeakyReLU: 2-9                    [128, 128, 4, 4]          --\n│    └─Conv2d: 2-10                      [128, 1, 1, 1]            2,048\n│    └─Sigmoid: 2-11                     [128, 1, 1, 1]            --\n==========================================================================================\nTotal params: 109,504\nTrainable params: 109,504\nNon-trainable params: 0\nTotal mult-adds (M): 369.68\n==========================================================================================\nInput size (MB): 0.40\nForward/backward pass size (MB): 23.46\nParams size (MB): 0.44\nEstimated Total Size (MB): 24.30\n=========================================================================================="
…
